----------------------------------------------------------------
        Layer (type)               Output Shape         Param #
================================================================
            Conv2d-1           [-1, 24, 32, 32]             648
       BatchNorm2d-2           [-1, 24, 32, 32]              48
              ReLU-3           [-1, 24, 32, 32]               0
            Conv2d-4           [-1, 44, 32, 32]           1,056
       BatchNorm2d-5           [-1, 44, 32, 32]              88
           Dropout-6           [-1, 44, 32, 32]               0
              ReLU-7           [-1, 44, 32, 32]               0
            Conv2d-8           [-1, 44, 16, 16]             396
       BatchNorm2d-9           [-1, 44, 16, 16]              88
          Dropout-10           [-1, 44, 16, 16]               0
           Conv2d-11          [-1, 176, 16, 16]           7,744
      BatchNorm2d-12          [-1, 176, 16, 16]             352
          Dropout-13          [-1, 176, 16, 16]               0
        AvgPool2d-14           [-1, 24, 16, 16]               0
             ReLU-15          [-1, 200, 16, 16]               0
    ShuffleUnitV1-16          [-1, 200, 16, 16]               0
           Conv2d-17           [-1, 50, 16, 16]           5,000
      BatchNorm2d-18           [-1, 50, 16, 16]             100
          Dropout-19           [-1, 50, 16, 16]               0
             ReLU-20           [-1, 50, 16, 16]               0
           Conv2d-21           [-1, 50, 16, 16]             450
      BatchNorm2d-22           [-1, 50, 16, 16]             100
          Dropout-23           [-1, 50, 16, 16]               0
           Conv2d-24          [-1, 200, 16, 16]           5,000
      BatchNorm2d-25          [-1, 200, 16, 16]             400
          Dropout-26          [-1, 200, 16, 16]               0
             ReLU-27          [-1, 200, 16, 16]               0
    ShuffleUnitV1-28          [-1, 200, 16, 16]               0
           Conv2d-29           [-1, 50, 16, 16]           5,000
      BatchNorm2d-30           [-1, 50, 16, 16]             100
          Dropout-31           [-1, 50, 16, 16]               0
             ReLU-32           [-1, 50, 16, 16]               0
           Conv2d-33           [-1, 50, 16, 16]             450
      BatchNorm2d-34           [-1, 50, 16, 16]             100
          Dropout-35           [-1, 50, 16, 16]               0
           Conv2d-36          [-1, 200, 16, 16]           5,000
      BatchNorm2d-37          [-1, 200, 16, 16]             400
          Dropout-38          [-1, 200, 16, 16]               0
             ReLU-39          [-1, 200, 16, 16]               0
    ShuffleUnitV1-40          [-1, 200, 16, 16]               0
           Conv2d-41           [-1, 50, 16, 16]           5,000
      BatchNorm2d-42           [-1, 50, 16, 16]             100
          Dropout-43           [-1, 50, 16, 16]               0
             ReLU-44           [-1, 50, 16, 16]               0
           Conv2d-45           [-1, 50, 16, 16]             450
      BatchNorm2d-46           [-1, 50, 16, 16]             100
          Dropout-47           [-1, 50, 16, 16]               0
           Conv2d-48          [-1, 200, 16, 16]           5,000
      BatchNorm2d-49          [-1, 200, 16, 16]             400
          Dropout-50          [-1, 200, 16, 16]               0
             ReLU-51          [-1, 200, 16, 16]               0
    ShuffleUnitV1-52          [-1, 200, 16, 16]               0
           Conv2d-53           [-1, 50, 16, 16]           5,000
      BatchNorm2d-54           [-1, 50, 16, 16]             100
          Dropout-55           [-1, 50, 16, 16]               0
             ReLU-56           [-1, 50, 16, 16]               0
           Conv2d-57             [-1, 50, 8, 8]             450
      BatchNorm2d-58             [-1, 50, 8, 8]             100
          Dropout-59             [-1, 50, 8, 8]               0
           Conv2d-60            [-1, 200, 8, 8]           5,000
      BatchNorm2d-61            [-1, 200, 8, 8]             400
          Dropout-62            [-1, 200, 8, 8]               0
        AvgPool2d-63            [-1, 200, 8, 8]               0
             ReLU-64            [-1, 400, 8, 8]               0
    ShuffleUnitV1-65            [-1, 400, 8, 8]               0
           Conv2d-66            [-1, 100, 8, 8]          20,000
      BatchNorm2d-67            [-1, 100, 8, 8]             200
          Dropout-68            [-1, 100, 8, 8]               0
             ReLU-69            [-1, 100, 8, 8]               0
           Conv2d-70            [-1, 100, 8, 8]             900
      BatchNorm2d-71            [-1, 100, 8, 8]             200
          Dropout-72            [-1, 100, 8, 8]               0
           Conv2d-73            [-1, 400, 8, 8]          20,000
      BatchNorm2d-74            [-1, 400, 8, 8]             800
          Dropout-75            [-1, 400, 8, 8]               0
             ReLU-76            [-1, 400, 8, 8]               0
    ShuffleUnitV1-77            [-1, 400, 8, 8]               0
           Conv2d-78            [-1, 100, 8, 8]          20,000
      BatchNorm2d-79            [-1, 100, 8, 8]             200
          Dropout-80            [-1, 100, 8, 8]               0
             ReLU-81            [-1, 100, 8, 8]               0
           Conv2d-82            [-1, 100, 8, 8]             900
      BatchNorm2d-83            [-1, 100, 8, 8]             200
          Dropout-84            [-1, 100, 8, 8]               0
           Conv2d-85            [-1, 400, 8, 8]          20,000
      BatchNorm2d-86            [-1, 400, 8, 8]             800
          Dropout-87            [-1, 400, 8, 8]               0
             ReLU-88            [-1, 400, 8, 8]               0
    ShuffleUnitV1-89            [-1, 400, 8, 8]               0
           Conv2d-90            [-1, 100, 8, 8]          20,000
      BatchNorm2d-91            [-1, 100, 8, 8]             200
          Dropout-92            [-1, 100, 8, 8]               0
             ReLU-93            [-1, 100, 8, 8]               0
           Conv2d-94            [-1, 100, 8, 8]             900
      BatchNorm2d-95            [-1, 100, 8, 8]             200
          Dropout-96            [-1, 100, 8, 8]               0
           Conv2d-97            [-1, 400, 8, 8]          20,000
      BatchNorm2d-98            [-1, 400, 8, 8]             800
          Dropout-99            [-1, 400, 8, 8]               0
            ReLU-100            [-1, 400, 8, 8]               0
   ShuffleUnitV1-101            [-1, 400, 8, 8]               0
          Conv2d-102            [-1, 100, 8, 8]          20,000
     BatchNorm2d-103            [-1, 100, 8, 8]             200
         Dropout-104            [-1, 100, 8, 8]               0
            ReLU-105            [-1, 100, 8, 8]               0
          Conv2d-106            [-1, 100, 8, 8]             900
     BatchNorm2d-107            [-1, 100, 8, 8]             200
         Dropout-108            [-1, 100, 8, 8]               0
          Conv2d-109            [-1, 400, 8, 8]          20,000
     BatchNorm2d-110            [-1, 400, 8, 8]             800
         Dropout-111            [-1, 400, 8, 8]               0
            ReLU-112            [-1, 400, 8, 8]               0
   ShuffleUnitV1-113            [-1, 400, 8, 8]               0
          Conv2d-114            [-1, 100, 8, 8]          20,000
     BatchNorm2d-115            [-1, 100, 8, 8]             200
         Dropout-116            [-1, 100, 8, 8]               0
            ReLU-117            [-1, 100, 8, 8]               0
          Conv2d-118            [-1, 100, 8, 8]             900
     BatchNorm2d-119            [-1, 100, 8, 8]             200
         Dropout-120            [-1, 100, 8, 8]               0
          Conv2d-121            [-1, 400, 8, 8]          20,000
     BatchNorm2d-122            [-1, 400, 8, 8]             800
         Dropout-123            [-1, 400, 8, 8]               0
            ReLU-124            [-1, 400, 8, 8]               0
   ShuffleUnitV1-125            [-1, 400, 8, 8]               0
          Conv2d-126            [-1, 100, 8, 8]          20,000
     BatchNorm2d-127            [-1, 100, 8, 8]             200
         Dropout-128            [-1, 100, 8, 8]               0
            ReLU-129            [-1, 100, 8, 8]               0
          Conv2d-130            [-1, 100, 8, 8]             900
     BatchNorm2d-131            [-1, 100, 8, 8]             200
         Dropout-132            [-1, 100, 8, 8]               0
          Conv2d-133            [-1, 400, 8, 8]          20,000
     BatchNorm2d-134            [-1, 400, 8, 8]             800
         Dropout-135            [-1, 400, 8, 8]               0
            ReLU-136            [-1, 400, 8, 8]               0
   ShuffleUnitV1-137            [-1, 400, 8, 8]               0
          Conv2d-138            [-1, 100, 8, 8]          20,000
     BatchNorm2d-139            [-1, 100, 8, 8]             200
         Dropout-140            [-1, 100, 8, 8]               0
            ReLU-141            [-1, 100, 8, 8]               0
          Conv2d-142            [-1, 100, 8, 8]             900
     BatchNorm2d-143            [-1, 100, 8, 8]             200
         Dropout-144            [-1, 100, 8, 8]               0
          Conv2d-145            [-1, 400, 8, 8]          20,000
     BatchNorm2d-146            [-1, 400, 8, 8]             800
         Dropout-147            [-1, 400, 8, 8]               0
            ReLU-148            [-1, 400, 8, 8]               0
   ShuffleUnitV1-149            [-1, 400, 8, 8]               0
          Conv2d-150            [-1, 100, 8, 8]          20,000
     BatchNorm2d-151            [-1, 100, 8, 8]             200
         Dropout-152            [-1, 100, 8, 8]               0
            ReLU-153            [-1, 100, 8, 8]               0
          Conv2d-154            [-1, 100, 4, 4]             900
     BatchNorm2d-155            [-1, 100, 4, 4]             200
         Dropout-156            [-1, 100, 4, 4]               0
          Conv2d-157            [-1, 400, 4, 4]          20,000
     BatchNorm2d-158            [-1, 400, 4, 4]             800
         Dropout-159            [-1, 400, 4, 4]               0
       AvgPool2d-160            [-1, 400, 4, 4]               0
            ReLU-161            [-1, 800, 4, 4]               0
   ShuffleUnitV1-162            [-1, 800, 4, 4]               0
          Conv2d-163            [-1, 200, 4, 4]          80,000
     BatchNorm2d-164            [-1, 200, 4, 4]             400
         Dropout-165            [-1, 200, 4, 4]               0
            ReLU-166            [-1, 200, 4, 4]               0
          Conv2d-167            [-1, 200, 4, 4]           1,800
     BatchNorm2d-168            [-1, 200, 4, 4]             400
         Dropout-169            [-1, 200, 4, 4]               0
          Conv2d-170            [-1, 800, 4, 4]          80,000
     BatchNorm2d-171            [-1, 800, 4, 4]           1,600
         Dropout-172            [-1, 800, 4, 4]               0
            ReLU-173            [-1, 800, 4, 4]               0
   ShuffleUnitV1-174            [-1, 800, 4, 4]               0
          Conv2d-175            [-1, 200, 4, 4]          80,000
     BatchNorm2d-176            [-1, 200, 4, 4]             400
         Dropout-177            [-1, 200, 4, 4]               0
            ReLU-178            [-1, 200, 4, 4]               0
          Conv2d-179            [-1, 200, 4, 4]           1,800
     BatchNorm2d-180            [-1, 200, 4, 4]             400
         Dropout-181            [-1, 200, 4, 4]               0
          Conv2d-182            [-1, 800, 4, 4]          80,000
     BatchNorm2d-183            [-1, 800, 4, 4]           1,600
         Dropout-184            [-1, 800, 4, 4]               0
            ReLU-185            [-1, 800, 4, 4]               0
   ShuffleUnitV1-186            [-1, 800, 4, 4]               0
          Conv2d-187            [-1, 200, 4, 4]          80,000
     BatchNorm2d-188            [-1, 200, 4, 4]             400
         Dropout-189            [-1, 200, 4, 4]               0
            ReLU-190            [-1, 200, 4, 4]               0
          Conv2d-191            [-1, 200, 4, 4]           1,800
     BatchNorm2d-192            [-1, 200, 4, 4]             400
         Dropout-193            [-1, 200, 4, 4]               0
          Conv2d-194            [-1, 800, 4, 4]          80,000
     BatchNorm2d-195            [-1, 800, 4, 4]           1,600
         Dropout-196            [-1, 800, 4, 4]               0
            ReLU-197            [-1, 800, 4, 4]               0
   ShuffleUnitV1-198            [-1, 800, 4, 4]               0
AdaptiveAvgPool2d-199            [-1, 800, 1, 1]               0
          Linear-200                   [-1, 10]           8,010
================================================================
Total params: 892,030
Trainable params: 892,030
Non-trainable params: 0
----------------------------------------------------------------
Input size (MB): 0.01
Forward/backward pass size (MB): 25.04
Params size (MB): 3.40
Estimated Total Size (MB): 28.46
----------------------------------------------------------------
