----------------------------------------------------------------
        Layer (type)               Output Shape         Param #
================================================================
            Conv2d-1           [-1, 16, 32, 32]             432
       BatchNorm2d-2           [-1, 16, 32, 32]              32
             ReLU6-3           [-1, 16, 32, 32]               0
            Conv2d-4           [-1, 48, 32, 32]             768
       BatchNorm2d-5           [-1, 48, 32, 32]              96
             ReLU6-6           [-1, 48, 32, 32]               0
           Dropout-7           [-1, 48, 32, 32]               0
            Conv2d-8           [-1, 48, 32, 32]             432
       BatchNorm2d-9           [-1, 48, 32, 32]              96
            ReLU6-10           [-1, 48, 32, 32]               0
          Dropout-11           [-1, 48, 32, 32]               0
           Conv2d-12           [-1, 16, 32, 32]             768
      BatchNorm2d-13           [-1, 16, 32, 32]              32
          Dropout-14           [-1, 16, 32, 32]               0
           MBConv-15           [-1, 16, 32, 32]               0
           Conv2d-16           [-1, 32, 16, 16]             512
      BatchNorm2d-17           [-1, 32, 16, 16]              64
           Conv2d-18           [-1, 48, 32, 32]             768
      BatchNorm2d-19           [-1, 48, 32, 32]              96
            ReLU6-20           [-1, 48, 32, 32]               0
          Dropout-21           [-1, 48, 32, 32]               0
           Conv2d-22           [-1, 48, 16, 16]             432
      BatchNorm2d-23           [-1, 48, 16, 16]              96
            ReLU6-24           [-1, 48, 16, 16]               0
          Dropout-25           [-1, 48, 16, 16]               0
           Conv2d-26           [-1, 32, 16, 16]           1,536
      BatchNorm2d-27           [-1, 32, 16, 16]              64
          Dropout-28           [-1, 32, 16, 16]               0
           MBConv-29           [-1, 32, 16, 16]               0
           Conv2d-30           [-1, 96, 16, 16]           3,072
      BatchNorm2d-31           [-1, 96, 16, 16]             192
            ReLU6-32           [-1, 96, 16, 16]               0
          Dropout-33           [-1, 96, 16, 16]               0
           Conv2d-34           [-1, 96, 16, 16]             864
      BatchNorm2d-35           [-1, 96, 16, 16]             192
            ReLU6-36           [-1, 96, 16, 16]               0
          Dropout-37           [-1, 96, 16, 16]               0
           Conv2d-38           [-1, 32, 16, 16]           3,072
      BatchNorm2d-39           [-1, 32, 16, 16]              64
          Dropout-40           [-1, 32, 16, 16]               0
           MBConv-41           [-1, 32, 16, 16]               0
           Conv2d-42             [-1, 64, 8, 8]           2,048
      BatchNorm2d-43             [-1, 64, 8, 8]             128
           Conv2d-44           [-1, 96, 16, 16]           3,072
      BatchNorm2d-45           [-1, 96, 16, 16]             192
            ReLU6-46           [-1, 96, 16, 16]               0
          Dropout-47           [-1, 96, 16, 16]               0
           Conv2d-48             [-1, 96, 8, 8]             864
      BatchNorm2d-49             [-1, 96, 8, 8]             192
            ReLU6-50             [-1, 96, 8, 8]               0
          Dropout-51             [-1, 96, 8, 8]               0
           Conv2d-52             [-1, 64, 8, 8]           6,144
      BatchNorm2d-53             [-1, 64, 8, 8]             128
          Dropout-54             [-1, 64, 8, 8]               0
           MBConv-55             [-1, 64, 8, 8]               0
           Conv2d-56            [-1, 192, 8, 8]          12,288
      BatchNorm2d-57            [-1, 192, 8, 8]             384
            ReLU6-58            [-1, 192, 8, 8]               0
          Dropout-59            [-1, 192, 8, 8]               0
           Conv2d-60            [-1, 192, 8, 8]           1,728
      BatchNorm2d-61            [-1, 192, 8, 8]             384
            ReLU6-62            [-1, 192, 8, 8]               0
          Dropout-63            [-1, 192, 8, 8]               0
           Conv2d-64             [-1, 64, 8, 8]          12,288
      BatchNorm2d-65             [-1, 64, 8, 8]             128
          Dropout-66             [-1, 64, 8, 8]               0
           MBConv-67             [-1, 64, 8, 8]               0
           Conv2d-68            [-1, 192, 8, 8]          12,288
      BatchNorm2d-69            [-1, 192, 8, 8]             384
            ReLU6-70            [-1, 192, 8, 8]               0
          Dropout-71            [-1, 192, 8, 8]               0
           Conv2d-72            [-1, 192, 8, 8]           1,728
      BatchNorm2d-73            [-1, 192, 8, 8]             384
            ReLU6-74            [-1, 192, 8, 8]               0
          Dropout-75            [-1, 192, 8, 8]               0
           Conv2d-76             [-1, 64, 8, 8]          12,288
      BatchNorm2d-77             [-1, 64, 8, 8]             128
          Dropout-78             [-1, 64, 8, 8]               0
           MBConv-79             [-1, 64, 8, 8]               0
           Conv2d-80             [-1, 96, 8, 8]           6,144
      BatchNorm2d-81             [-1, 96, 8, 8]             192
           Conv2d-82            [-1, 192, 8, 8]          12,288
      BatchNorm2d-83            [-1, 192, 8, 8]             384
            ReLU6-84            [-1, 192, 8, 8]               0
          Dropout-85            [-1, 192, 8, 8]               0
           Conv2d-86            [-1, 192, 8, 8]           1,728
      BatchNorm2d-87            [-1, 192, 8, 8]             384
            ReLU6-88            [-1, 192, 8, 8]               0
          Dropout-89            [-1, 192, 8, 8]               0
           Conv2d-90             [-1, 96, 8, 8]          18,432
      BatchNorm2d-91             [-1, 96, 8, 8]             192
          Dropout-92             [-1, 96, 8, 8]               0
           MBConv-93             [-1, 96, 8, 8]               0
           Conv2d-94            [-1, 288, 8, 8]          27,648
      BatchNorm2d-95            [-1, 288, 8, 8]             576
            ReLU6-96            [-1, 288, 8, 8]               0
          Dropout-97            [-1, 288, 8, 8]               0
           Conv2d-98            [-1, 288, 8, 8]           2,592
      BatchNorm2d-99            [-1, 288, 8, 8]             576
           ReLU6-100            [-1, 288, 8, 8]               0
         Dropout-101            [-1, 288, 8, 8]               0
          Conv2d-102             [-1, 96, 8, 8]          27,648
     BatchNorm2d-103             [-1, 96, 8, 8]             192
         Dropout-104             [-1, 96, 8, 8]               0
          MBConv-105             [-1, 96, 8, 8]               0
          Conv2d-106            [-1, 288, 8, 8]          27,648
     BatchNorm2d-107            [-1, 288, 8, 8]             576
           ReLU6-108            [-1, 288, 8, 8]               0
         Dropout-109            [-1, 288, 8, 8]               0
          Conv2d-110            [-1, 288, 8, 8]           2,592
     BatchNorm2d-111            [-1, 288, 8, 8]             576
           ReLU6-112            [-1, 288, 8, 8]               0
         Dropout-113            [-1, 288, 8, 8]               0
          Conv2d-114             [-1, 96, 8, 8]          27,648
     BatchNorm2d-115             [-1, 96, 8, 8]             192
         Dropout-116             [-1, 96, 8, 8]               0
          MBConv-117             [-1, 96, 8, 8]               0
          Conv2d-118            [-1, 288, 8, 8]          27,648
     BatchNorm2d-119            [-1, 288, 8, 8]             576
           ReLU6-120            [-1, 288, 8, 8]               0
         Dropout-121            [-1, 288, 8, 8]               0
          Conv2d-122            [-1, 288, 8, 8]           2,592
     BatchNorm2d-123            [-1, 288, 8, 8]             576
           ReLU6-124            [-1, 288, 8, 8]               0
         Dropout-125            [-1, 288, 8, 8]               0
          Conv2d-126             [-1, 96, 8, 8]          27,648
     BatchNorm2d-127             [-1, 96, 8, 8]             192
         Dropout-128             [-1, 96, 8, 8]               0
          MBConv-129             [-1, 96, 8, 8]               0
          Conv2d-130            [-1, 128, 8, 8]          12,288
     BatchNorm2d-131            [-1, 128, 8, 8]             256
          Conv2d-132            [-1, 288, 8, 8]          27,648
     BatchNorm2d-133            [-1, 288, 8, 8]             576
           ReLU6-134            [-1, 288, 8, 8]               0
         Dropout-135            [-1, 288, 8, 8]               0
          Conv2d-136            [-1, 288, 8, 8]           2,592
     BatchNorm2d-137            [-1, 288, 8, 8]             576
           ReLU6-138            [-1, 288, 8, 8]               0
         Dropout-139            [-1, 288, 8, 8]               0
          Conv2d-140            [-1, 128, 8, 8]          36,864
     BatchNorm2d-141            [-1, 128, 8, 8]             256
         Dropout-142            [-1, 128, 8, 8]               0
          MBConv-143            [-1, 128, 8, 8]               0
          Conv2d-144            [-1, 384, 8, 8]          49,152
     BatchNorm2d-145            [-1, 384, 8, 8]             768
           ReLU6-146            [-1, 384, 8, 8]               0
         Dropout-147            [-1, 384, 8, 8]               0
          Conv2d-148            [-1, 384, 8, 8]           3,456
     BatchNorm2d-149            [-1, 384, 8, 8]             768
           ReLU6-150            [-1, 384, 8, 8]               0
         Dropout-151            [-1, 384, 8, 8]               0
          Conv2d-152            [-1, 128, 8, 8]          49,152
     BatchNorm2d-153            [-1, 128, 8, 8]             256
         Dropout-154            [-1, 128, 8, 8]               0
          MBConv-155            [-1, 128, 8, 8]               0
          Conv2d-156            [-1, 384, 8, 8]          49,152
     BatchNorm2d-157            [-1, 384, 8, 8]             768
           ReLU6-158            [-1, 384, 8, 8]               0
         Dropout-159            [-1, 384, 8, 8]               0
          Conv2d-160            [-1, 384, 8, 8]           3,456
     BatchNorm2d-161            [-1, 384, 8, 8]             768
           ReLU6-162            [-1, 384, 8, 8]               0
         Dropout-163            [-1, 384, 8, 8]               0
          Conv2d-164            [-1, 128, 8, 8]          49,152
     BatchNorm2d-165            [-1, 128, 8, 8]             256
         Dropout-166            [-1, 128, 8, 8]               0
          MBConv-167            [-1, 128, 8, 8]               0
          Conv2d-168            [-1, 256, 4, 4]          32,768
     BatchNorm2d-169            [-1, 256, 4, 4]             512
          Conv2d-170            [-1, 384, 8, 8]          49,152
     BatchNorm2d-171            [-1, 384, 8, 8]             768
           ReLU6-172            [-1, 384, 8, 8]               0
         Dropout-173            [-1, 384, 8, 8]               0
          Conv2d-174            [-1, 384, 4, 4]           3,456
     BatchNorm2d-175            [-1, 384, 4, 4]             768
           ReLU6-176            [-1, 384, 4, 4]               0
         Dropout-177            [-1, 384, 4, 4]               0
          Conv2d-178            [-1, 256, 4, 4]          98,304
     BatchNorm2d-179            [-1, 256, 4, 4]             512
         Dropout-180            [-1, 256, 4, 4]               0
          MBConv-181            [-1, 256, 4, 4]               0
          Conv2d-182            [-1, 768, 4, 4]         196,608
     BatchNorm2d-183            [-1, 768, 4, 4]           1,536
           ReLU6-184            [-1, 768, 4, 4]               0
         Dropout-185            [-1, 768, 4, 4]               0
          Conv2d-186            [-1, 768, 4, 4]           6,912
     BatchNorm2d-187            [-1, 768, 4, 4]           1,536
           ReLU6-188            [-1, 768, 4, 4]               0
         Dropout-189            [-1, 768, 4, 4]               0
          Conv2d-190            [-1, 256, 4, 4]         196,608
     BatchNorm2d-191            [-1, 256, 4, 4]             512
         Dropout-192            [-1, 256, 4, 4]               0
          MBConv-193            [-1, 256, 4, 4]               0
          Conv2d-194            [-1, 768, 4, 4]         196,608
     BatchNorm2d-195            [-1, 768, 4, 4]           1,536
           ReLU6-196            [-1, 768, 4, 4]               0
         Dropout-197            [-1, 768, 4, 4]               0
          Conv2d-198            [-1, 768, 4, 4]           6,912
     BatchNorm2d-199            [-1, 768, 4, 4]           1,536
           ReLU6-200            [-1, 768, 4, 4]               0
         Dropout-201            [-1, 768, 4, 4]               0
          Conv2d-202            [-1, 256, 4, 4]         196,608
     BatchNorm2d-203            [-1, 256, 4, 4]             512
         Dropout-204            [-1, 256, 4, 4]               0
          MBConv-205            [-1, 256, 4, 4]               0
          Conv2d-206            [-1, 384, 4, 4]          98,304
     BatchNorm2d-207            [-1, 384, 4, 4]             768
          Conv2d-208            [-1, 768, 4, 4]         196,608
     BatchNorm2d-209            [-1, 768, 4, 4]           1,536
           ReLU6-210            [-1, 768, 4, 4]               0
         Dropout-211            [-1, 768, 4, 4]               0
          Conv2d-212            [-1, 768, 4, 4]           6,912
     BatchNorm2d-213            [-1, 768, 4, 4]           1,536
           ReLU6-214            [-1, 768, 4, 4]               0
         Dropout-215            [-1, 768, 4, 4]               0
          Conv2d-216            [-1, 384, 4, 4]         294,912
     BatchNorm2d-217            [-1, 384, 4, 4]             768
         Dropout-218            [-1, 384, 4, 4]               0
          MBConv-219            [-1, 384, 4, 4]               0
          Conv2d-220            [-1, 512, 4, 4]         196,608
     BatchNorm2d-221            [-1, 512, 4, 4]           1,024
           ReLU6-222            [-1, 512, 4, 4]               0
AdaptiveAvgPool2d-223            [-1, 512, 1, 1]               0
          Conv2d-224             [-1, 10, 1, 1]           5,120
================================================================
Total params: 2,384,208
Trainable params: 2,384,208
Non-trainable params: 0
----------------------------------------------------------------
Input size (MB): 0.01
Forward/backward pass size (MB): 24.82
Params size (MB): 9.10
Estimated Total Size (MB): 33.92
----------------------------------------------------------------
