----------------------------------------------------------------
        Layer (type)               Output Shape         Param #
================================================================
            Conv2d-1           [-1, 12, 32, 32]             324
       BatchNorm2d-2           [-1, 12, 32, 32]              24
              ReLU-3           [-1, 12, 32, 32]               0
            Conv2d-4           [-1, 45, 32, 32]             540
       BatchNorm2d-5           [-1, 45, 32, 32]              90
           Dropout-6           [-1, 45, 32, 32]               0
              ReLU-7           [-1, 45, 32, 32]               0
            Conv2d-8           [-1, 45, 16, 16]             405
       BatchNorm2d-9           [-1, 45, 16, 16]              90
          Dropout-10           [-1, 45, 16, 16]               0
           Conv2d-11          [-1, 180, 16, 16]           8,100
      BatchNorm2d-12          [-1, 180, 16, 16]             360
          Dropout-13          [-1, 180, 16, 16]               0
        AvgPool2d-14           [-1, 12, 16, 16]               0
             ReLU-15          [-1, 192, 16, 16]               0
    ShuffleUnitV1-16          [-1, 192, 16, 16]               0
           Conv2d-17           [-1, 48, 16, 16]           1,152
      BatchNorm2d-18           [-1, 48, 16, 16]              96
          Dropout-19           [-1, 48, 16, 16]               0
             ReLU-20           [-1, 48, 16, 16]               0
           Conv2d-21           [-1, 48, 16, 16]             432
      BatchNorm2d-22           [-1, 48, 16, 16]              96
          Dropout-23           [-1, 48, 16, 16]               0
           Conv2d-24          [-1, 192, 16, 16]           1,152
      BatchNorm2d-25          [-1, 192, 16, 16]             384
          Dropout-26          [-1, 192, 16, 16]               0
             ReLU-27          [-1, 192, 16, 16]               0
    ShuffleUnitV1-28          [-1, 192, 16, 16]               0
           Conv2d-29           [-1, 48, 16, 16]           1,152
      BatchNorm2d-30           [-1, 48, 16, 16]              96
          Dropout-31           [-1, 48, 16, 16]               0
             ReLU-32           [-1, 48, 16, 16]               0
           Conv2d-33           [-1, 48, 16, 16]             432
      BatchNorm2d-34           [-1, 48, 16, 16]              96
          Dropout-35           [-1, 48, 16, 16]               0
           Conv2d-36          [-1, 192, 16, 16]           1,152
      BatchNorm2d-37          [-1, 192, 16, 16]             384
          Dropout-38          [-1, 192, 16, 16]               0
             ReLU-39          [-1, 192, 16, 16]               0
    ShuffleUnitV1-40          [-1, 192, 16, 16]               0
           Conv2d-41           [-1, 48, 16, 16]           1,152
      BatchNorm2d-42           [-1, 48, 16, 16]              96
          Dropout-43           [-1, 48, 16, 16]               0
             ReLU-44           [-1, 48, 16, 16]               0
           Conv2d-45           [-1, 48, 16, 16]             432
      BatchNorm2d-46           [-1, 48, 16, 16]              96
          Dropout-47           [-1, 48, 16, 16]               0
           Conv2d-48          [-1, 192, 16, 16]           1,152
      BatchNorm2d-49          [-1, 192, 16, 16]             384
          Dropout-50          [-1, 192, 16, 16]               0
             ReLU-51          [-1, 192, 16, 16]               0
    ShuffleUnitV1-52          [-1, 192, 16, 16]               0
           Conv2d-53           [-1, 48, 16, 16]           1,152
      BatchNorm2d-54           [-1, 48, 16, 16]              96
          Dropout-55           [-1, 48, 16, 16]               0
             ReLU-56           [-1, 48, 16, 16]               0
           Conv2d-57             [-1, 48, 8, 8]             432
      BatchNorm2d-58             [-1, 48, 8, 8]              96
          Dropout-59             [-1, 48, 8, 8]               0
           Conv2d-60            [-1, 192, 8, 8]           1,152
      BatchNorm2d-61            [-1, 192, 8, 8]             384
          Dropout-62            [-1, 192, 8, 8]               0
        AvgPool2d-63            [-1, 192, 8, 8]               0
             ReLU-64            [-1, 384, 8, 8]               0
    ShuffleUnitV1-65            [-1, 384, 8, 8]               0
           Conv2d-66             [-1, 96, 8, 8]           4,608
      BatchNorm2d-67             [-1, 96, 8, 8]             192
          Dropout-68             [-1, 96, 8, 8]               0
             ReLU-69             [-1, 96, 8, 8]               0
           Conv2d-70             [-1, 96, 8, 8]             864
      BatchNorm2d-71             [-1, 96, 8, 8]             192
          Dropout-72             [-1, 96, 8, 8]               0
           Conv2d-73            [-1, 384, 8, 8]           4,608
      BatchNorm2d-74            [-1, 384, 8, 8]             768
          Dropout-75            [-1, 384, 8, 8]               0
             ReLU-76            [-1, 384, 8, 8]               0
    ShuffleUnitV1-77            [-1, 384, 8, 8]               0
           Conv2d-78             [-1, 96, 8, 8]           4,608
      BatchNorm2d-79             [-1, 96, 8, 8]             192
          Dropout-80             [-1, 96, 8, 8]               0
             ReLU-81             [-1, 96, 8, 8]               0
           Conv2d-82             [-1, 96, 8, 8]             864
      BatchNorm2d-83             [-1, 96, 8, 8]             192
          Dropout-84             [-1, 96, 8, 8]               0
           Conv2d-85            [-1, 384, 8, 8]           4,608
      BatchNorm2d-86            [-1, 384, 8, 8]             768
          Dropout-87            [-1, 384, 8, 8]               0
             ReLU-88            [-1, 384, 8, 8]               0
    ShuffleUnitV1-89            [-1, 384, 8, 8]               0
           Conv2d-90             [-1, 96, 8, 8]           4,608
      BatchNorm2d-91             [-1, 96, 8, 8]             192
          Dropout-92             [-1, 96, 8, 8]               0
             ReLU-93             [-1, 96, 8, 8]               0
           Conv2d-94             [-1, 96, 8, 8]             864
      BatchNorm2d-95             [-1, 96, 8, 8]             192
          Dropout-96             [-1, 96, 8, 8]               0
           Conv2d-97            [-1, 384, 8, 8]           4,608
      BatchNorm2d-98            [-1, 384, 8, 8]             768
          Dropout-99            [-1, 384, 8, 8]               0
            ReLU-100            [-1, 384, 8, 8]               0
   ShuffleUnitV1-101            [-1, 384, 8, 8]               0
          Conv2d-102             [-1, 96, 8, 8]           4,608
     BatchNorm2d-103             [-1, 96, 8, 8]             192
         Dropout-104             [-1, 96, 8, 8]               0
            ReLU-105             [-1, 96, 8, 8]               0
          Conv2d-106             [-1, 96, 8, 8]             864
     BatchNorm2d-107             [-1, 96, 8, 8]             192
         Dropout-108             [-1, 96, 8, 8]               0
          Conv2d-109            [-1, 384, 8, 8]           4,608
     BatchNorm2d-110            [-1, 384, 8, 8]             768
         Dropout-111            [-1, 384, 8, 8]               0
            ReLU-112            [-1, 384, 8, 8]               0
   ShuffleUnitV1-113            [-1, 384, 8, 8]               0
          Conv2d-114             [-1, 96, 8, 8]           4,608
     BatchNorm2d-115             [-1, 96, 8, 8]             192
         Dropout-116             [-1, 96, 8, 8]               0
            ReLU-117             [-1, 96, 8, 8]               0
          Conv2d-118             [-1, 96, 8, 8]             864
     BatchNorm2d-119             [-1, 96, 8, 8]             192
         Dropout-120             [-1, 96, 8, 8]               0
          Conv2d-121            [-1, 384, 8, 8]           4,608
     BatchNorm2d-122            [-1, 384, 8, 8]             768
         Dropout-123            [-1, 384, 8, 8]               0
            ReLU-124            [-1, 384, 8, 8]               0
   ShuffleUnitV1-125            [-1, 384, 8, 8]               0
          Conv2d-126             [-1, 96, 8, 8]           4,608
     BatchNorm2d-127             [-1, 96, 8, 8]             192
         Dropout-128             [-1, 96, 8, 8]               0
            ReLU-129             [-1, 96, 8, 8]               0
          Conv2d-130             [-1, 96, 8, 8]             864
     BatchNorm2d-131             [-1, 96, 8, 8]             192
         Dropout-132             [-1, 96, 8, 8]               0
          Conv2d-133            [-1, 384, 8, 8]           4,608
     BatchNorm2d-134            [-1, 384, 8, 8]             768
         Dropout-135            [-1, 384, 8, 8]               0
            ReLU-136            [-1, 384, 8, 8]               0
   ShuffleUnitV1-137            [-1, 384, 8, 8]               0
          Conv2d-138             [-1, 96, 8, 8]           4,608
     BatchNorm2d-139             [-1, 96, 8, 8]             192
         Dropout-140             [-1, 96, 8, 8]               0
            ReLU-141             [-1, 96, 8, 8]               0
          Conv2d-142             [-1, 96, 8, 8]             864
     BatchNorm2d-143             [-1, 96, 8, 8]             192
         Dropout-144             [-1, 96, 8, 8]               0
          Conv2d-145            [-1, 384, 8, 8]           4,608
     BatchNorm2d-146            [-1, 384, 8, 8]             768
         Dropout-147            [-1, 384, 8, 8]               0
            ReLU-148            [-1, 384, 8, 8]               0
   ShuffleUnitV1-149            [-1, 384, 8, 8]               0
          Conv2d-150             [-1, 96, 8, 8]           4,608
     BatchNorm2d-151             [-1, 96, 8, 8]             192
         Dropout-152             [-1, 96, 8, 8]               0
            ReLU-153             [-1, 96, 8, 8]               0
          Conv2d-154             [-1, 96, 4, 4]             864
     BatchNorm2d-155             [-1, 96, 4, 4]             192
         Dropout-156             [-1, 96, 4, 4]               0
          Conv2d-157            [-1, 384, 4, 4]           4,608
     BatchNorm2d-158            [-1, 384, 4, 4]             768
         Dropout-159            [-1, 384, 4, 4]               0
       AvgPool2d-160            [-1, 384, 4, 4]               0
            ReLU-161            [-1, 768, 4, 4]               0
   ShuffleUnitV1-162            [-1, 768, 4, 4]               0
          Conv2d-163            [-1, 192, 4, 4]          18,432
     BatchNorm2d-164            [-1, 192, 4, 4]             384
         Dropout-165            [-1, 192, 4, 4]               0
            ReLU-166            [-1, 192, 4, 4]               0
          Conv2d-167            [-1, 192, 4, 4]           1,728
     BatchNorm2d-168            [-1, 192, 4, 4]             384
         Dropout-169            [-1, 192, 4, 4]               0
          Conv2d-170            [-1, 768, 4, 4]          18,432
     BatchNorm2d-171            [-1, 768, 4, 4]           1,536
         Dropout-172            [-1, 768, 4, 4]               0
            ReLU-173            [-1, 768, 4, 4]               0
   ShuffleUnitV1-174            [-1, 768, 4, 4]               0
          Conv2d-175            [-1, 192, 4, 4]          18,432
     BatchNorm2d-176            [-1, 192, 4, 4]             384
         Dropout-177            [-1, 192, 4, 4]               0
            ReLU-178            [-1, 192, 4, 4]               0
          Conv2d-179            [-1, 192, 4, 4]           1,728
     BatchNorm2d-180            [-1, 192, 4, 4]             384
         Dropout-181            [-1, 192, 4, 4]               0
          Conv2d-182            [-1, 768, 4, 4]          18,432
     BatchNorm2d-183            [-1, 768, 4, 4]           1,536
         Dropout-184            [-1, 768, 4, 4]               0
            ReLU-185            [-1, 768, 4, 4]               0
   ShuffleUnitV1-186            [-1, 768, 4, 4]               0
          Conv2d-187            [-1, 192, 4, 4]          18,432
     BatchNorm2d-188            [-1, 192, 4, 4]             384
         Dropout-189            [-1, 192, 4, 4]               0
            ReLU-190            [-1, 192, 4, 4]               0
          Conv2d-191            [-1, 192, 4, 4]           1,728
     BatchNorm2d-192            [-1, 192, 4, 4]             384
         Dropout-193            [-1, 192, 4, 4]               0
          Conv2d-194            [-1, 768, 4, 4]          18,432
     BatchNorm2d-195            [-1, 768, 4, 4]           1,536
         Dropout-196            [-1, 768, 4, 4]               0
            ReLU-197            [-1, 768, 4, 4]               0
   ShuffleUnitV1-198            [-1, 768, 4, 4]               0
AdaptiveAvgPool2d-199            [-1, 768, 1, 1]               0
          Linear-200                   [-1, 10]           7,690
================================================================
Total params: 243,415
Trainable params: 243,415
Non-trainable params: 0
----------------------------------------------------------------
Input size (MB): 0.01
Forward/backward pass size (MB): 23.93
Params size (MB): 0.93
Estimated Total Size (MB): 24.87
----------------------------------------------------------------
