----------------------------------------------------------------
        Layer (type)               Output Shape         Param #
================================================================
            Conv2d-1           [-1, 24, 32, 32]             648
       BatchNorm2d-2           [-1, 24, 32, 32]              48
              ReLU-3           [-1, 24, 32, 32]               0
            Conv2d-4           [-1, 54, 32, 32]           1,296
       BatchNorm2d-5           [-1, 54, 32, 32]             108
           Dropout-6           [-1, 54, 32, 32]               0
              ReLU-7           [-1, 54, 32, 32]               0
            Conv2d-8           [-1, 54, 16, 16]             486
       BatchNorm2d-9           [-1, 54, 16, 16]             108
          Dropout-10           [-1, 54, 16, 16]               0
           Conv2d-11          [-1, 216, 16, 16]          11,664
      BatchNorm2d-12          [-1, 216, 16, 16]             432
          Dropout-13          [-1, 216, 16, 16]               0
        AvgPool2d-14           [-1, 24, 16, 16]               0
             ReLU-15          [-1, 240, 16, 16]               0
    ShuffleUnitV1-16          [-1, 240, 16, 16]               0
           Conv2d-17           [-1, 60, 16, 16]           4,800
      BatchNorm2d-18           [-1, 60, 16, 16]             120
          Dropout-19           [-1, 60, 16, 16]               0
             ReLU-20           [-1, 60, 16, 16]               0
           Conv2d-21           [-1, 60, 16, 16]             540
      BatchNorm2d-22           [-1, 60, 16, 16]             120
          Dropout-23           [-1, 60, 16, 16]               0
           Conv2d-24          [-1, 240, 16, 16]           4,800
      BatchNorm2d-25          [-1, 240, 16, 16]             480
          Dropout-26          [-1, 240, 16, 16]               0
             ReLU-27          [-1, 240, 16, 16]               0
    ShuffleUnitV1-28          [-1, 240, 16, 16]               0
           Conv2d-29           [-1, 60, 16, 16]           4,800
      BatchNorm2d-30           [-1, 60, 16, 16]             120
          Dropout-31           [-1, 60, 16, 16]               0
             ReLU-32           [-1, 60, 16, 16]               0
           Conv2d-33           [-1, 60, 16, 16]             540
      BatchNorm2d-34           [-1, 60, 16, 16]             120
          Dropout-35           [-1, 60, 16, 16]               0
           Conv2d-36          [-1, 240, 16, 16]           4,800
      BatchNorm2d-37          [-1, 240, 16, 16]             480
          Dropout-38          [-1, 240, 16, 16]               0
             ReLU-39          [-1, 240, 16, 16]               0
    ShuffleUnitV1-40          [-1, 240, 16, 16]               0
           Conv2d-41           [-1, 60, 16, 16]           4,800
      BatchNorm2d-42           [-1, 60, 16, 16]             120
          Dropout-43           [-1, 60, 16, 16]               0
             ReLU-44           [-1, 60, 16, 16]               0
           Conv2d-45           [-1, 60, 16, 16]             540
      BatchNorm2d-46           [-1, 60, 16, 16]             120
          Dropout-47           [-1, 60, 16, 16]               0
           Conv2d-48          [-1, 240, 16, 16]           4,800
      BatchNorm2d-49          [-1, 240, 16, 16]             480
          Dropout-50          [-1, 240, 16, 16]               0
             ReLU-51          [-1, 240, 16, 16]               0
    ShuffleUnitV1-52          [-1, 240, 16, 16]               0
           Conv2d-53           [-1, 60, 16, 16]           4,800
      BatchNorm2d-54           [-1, 60, 16, 16]             120
          Dropout-55           [-1, 60, 16, 16]               0
             ReLU-56           [-1, 60, 16, 16]               0
           Conv2d-57             [-1, 60, 8, 8]             540
      BatchNorm2d-58             [-1, 60, 8, 8]             120
          Dropout-59             [-1, 60, 8, 8]               0
           Conv2d-60            [-1, 240, 8, 8]           4,800
      BatchNorm2d-61            [-1, 240, 8, 8]             480
          Dropout-62            [-1, 240, 8, 8]               0
        AvgPool2d-63            [-1, 240, 8, 8]               0
             ReLU-64            [-1, 480, 8, 8]               0
    ShuffleUnitV1-65            [-1, 480, 8, 8]               0
           Conv2d-66            [-1, 120, 8, 8]          19,200
      BatchNorm2d-67            [-1, 120, 8, 8]             240
          Dropout-68            [-1, 120, 8, 8]               0
             ReLU-69            [-1, 120, 8, 8]               0
           Conv2d-70            [-1, 120, 8, 8]           1,080
      BatchNorm2d-71            [-1, 120, 8, 8]             240
          Dropout-72            [-1, 120, 8, 8]               0
           Conv2d-73            [-1, 480, 8, 8]          19,200
      BatchNorm2d-74            [-1, 480, 8, 8]             960
          Dropout-75            [-1, 480, 8, 8]               0
             ReLU-76            [-1, 480, 8, 8]               0
    ShuffleUnitV1-77            [-1, 480, 8, 8]               0
           Conv2d-78            [-1, 120, 8, 8]          19,200
      BatchNorm2d-79            [-1, 120, 8, 8]             240
          Dropout-80            [-1, 120, 8, 8]               0
             ReLU-81            [-1, 120, 8, 8]               0
           Conv2d-82            [-1, 120, 8, 8]           1,080
      BatchNorm2d-83            [-1, 120, 8, 8]             240
          Dropout-84            [-1, 120, 8, 8]               0
           Conv2d-85            [-1, 480, 8, 8]          19,200
      BatchNorm2d-86            [-1, 480, 8, 8]             960
          Dropout-87            [-1, 480, 8, 8]               0
             ReLU-88            [-1, 480, 8, 8]               0
    ShuffleUnitV1-89            [-1, 480, 8, 8]               0
           Conv2d-90            [-1, 120, 8, 8]          19,200
      BatchNorm2d-91            [-1, 120, 8, 8]             240
          Dropout-92            [-1, 120, 8, 8]               0
             ReLU-93            [-1, 120, 8, 8]               0
           Conv2d-94            [-1, 120, 8, 8]           1,080
      BatchNorm2d-95            [-1, 120, 8, 8]             240
          Dropout-96            [-1, 120, 8, 8]               0
           Conv2d-97            [-1, 480, 8, 8]          19,200
      BatchNorm2d-98            [-1, 480, 8, 8]             960
          Dropout-99            [-1, 480, 8, 8]               0
            ReLU-100            [-1, 480, 8, 8]               0
   ShuffleUnitV1-101            [-1, 480, 8, 8]               0
          Conv2d-102            [-1, 120, 8, 8]          19,200
     BatchNorm2d-103            [-1, 120, 8, 8]             240
         Dropout-104            [-1, 120, 8, 8]               0
            ReLU-105            [-1, 120, 8, 8]               0
          Conv2d-106            [-1, 120, 8, 8]           1,080
     BatchNorm2d-107            [-1, 120, 8, 8]             240
         Dropout-108            [-1, 120, 8, 8]               0
          Conv2d-109            [-1, 480, 8, 8]          19,200
     BatchNorm2d-110            [-1, 480, 8, 8]             960
         Dropout-111            [-1, 480, 8, 8]               0
            ReLU-112            [-1, 480, 8, 8]               0
   ShuffleUnitV1-113            [-1, 480, 8, 8]               0
          Conv2d-114            [-1, 120, 8, 8]          19,200
     BatchNorm2d-115            [-1, 120, 8, 8]             240
         Dropout-116            [-1, 120, 8, 8]               0
            ReLU-117            [-1, 120, 8, 8]               0
          Conv2d-118            [-1, 120, 8, 8]           1,080
     BatchNorm2d-119            [-1, 120, 8, 8]             240
         Dropout-120            [-1, 120, 8, 8]               0
          Conv2d-121            [-1, 480, 8, 8]          19,200
     BatchNorm2d-122            [-1, 480, 8, 8]             960
         Dropout-123            [-1, 480, 8, 8]               0
            ReLU-124            [-1, 480, 8, 8]               0
   ShuffleUnitV1-125            [-1, 480, 8, 8]               0
          Conv2d-126            [-1, 120, 8, 8]          19,200
     BatchNorm2d-127            [-1, 120, 8, 8]             240
         Dropout-128            [-1, 120, 8, 8]               0
            ReLU-129            [-1, 120, 8, 8]               0
          Conv2d-130            [-1, 120, 8, 8]           1,080
     BatchNorm2d-131            [-1, 120, 8, 8]             240
         Dropout-132            [-1, 120, 8, 8]               0
          Conv2d-133            [-1, 480, 8, 8]          19,200
     BatchNorm2d-134            [-1, 480, 8, 8]             960
         Dropout-135            [-1, 480, 8, 8]               0
            ReLU-136            [-1, 480, 8, 8]               0
   ShuffleUnitV1-137            [-1, 480, 8, 8]               0
          Conv2d-138            [-1, 120, 8, 8]          19,200
     BatchNorm2d-139            [-1, 120, 8, 8]             240
         Dropout-140            [-1, 120, 8, 8]               0
            ReLU-141            [-1, 120, 8, 8]               0
          Conv2d-142            [-1, 120, 8, 8]           1,080
     BatchNorm2d-143            [-1, 120, 8, 8]             240
         Dropout-144            [-1, 120, 8, 8]               0
          Conv2d-145            [-1, 480, 8, 8]          19,200
     BatchNorm2d-146            [-1, 480, 8, 8]             960
         Dropout-147            [-1, 480, 8, 8]               0
            ReLU-148            [-1, 480, 8, 8]               0
   ShuffleUnitV1-149            [-1, 480, 8, 8]               0
          Conv2d-150            [-1, 120, 8, 8]          19,200
     BatchNorm2d-151            [-1, 120, 8, 8]             240
         Dropout-152            [-1, 120, 8, 8]               0
            ReLU-153            [-1, 120, 8, 8]               0
          Conv2d-154            [-1, 120, 4, 4]           1,080
     BatchNorm2d-155            [-1, 120, 4, 4]             240
         Dropout-156            [-1, 120, 4, 4]               0
          Conv2d-157            [-1, 480, 4, 4]          19,200
     BatchNorm2d-158            [-1, 480, 4, 4]             960
         Dropout-159            [-1, 480, 4, 4]               0
       AvgPool2d-160            [-1, 480, 4, 4]               0
            ReLU-161            [-1, 960, 4, 4]               0
   ShuffleUnitV1-162            [-1, 960, 4, 4]               0
          Conv2d-163            [-1, 240, 4, 4]          76,800
     BatchNorm2d-164            [-1, 240, 4, 4]             480
         Dropout-165            [-1, 240, 4, 4]               0
            ReLU-166            [-1, 240, 4, 4]               0
          Conv2d-167            [-1, 240, 4, 4]           2,160
     BatchNorm2d-168            [-1, 240, 4, 4]             480
         Dropout-169            [-1, 240, 4, 4]               0
          Conv2d-170            [-1, 960, 4, 4]          76,800
     BatchNorm2d-171            [-1, 960, 4, 4]           1,920
         Dropout-172            [-1, 960, 4, 4]               0
            ReLU-173            [-1, 960, 4, 4]               0
   ShuffleUnitV1-174            [-1, 960, 4, 4]               0
          Conv2d-175            [-1, 240, 4, 4]          76,800
     BatchNorm2d-176            [-1, 240, 4, 4]             480
         Dropout-177            [-1, 240, 4, 4]               0
            ReLU-178            [-1, 240, 4, 4]               0
          Conv2d-179            [-1, 240, 4, 4]           2,160
     BatchNorm2d-180            [-1, 240, 4, 4]             480
         Dropout-181            [-1, 240, 4, 4]               0
          Conv2d-182            [-1, 960, 4, 4]          76,800
     BatchNorm2d-183            [-1, 960, 4, 4]           1,920
         Dropout-184            [-1, 960, 4, 4]               0
            ReLU-185            [-1, 960, 4, 4]               0
   ShuffleUnitV1-186            [-1, 960, 4, 4]               0
          Conv2d-187            [-1, 240, 4, 4]          76,800
     BatchNorm2d-188            [-1, 240, 4, 4]             480
         Dropout-189            [-1, 240, 4, 4]               0
            ReLU-190            [-1, 240, 4, 4]               0
          Conv2d-191            [-1, 240, 4, 4]           2,160
     BatchNorm2d-192            [-1, 240, 4, 4]             480
         Dropout-193            [-1, 240, 4, 4]               0
          Conv2d-194            [-1, 960, 4, 4]          76,800
     BatchNorm2d-195            [-1, 960, 4, 4]           1,920
         Dropout-196            [-1, 960, 4, 4]               0
            ReLU-197            [-1, 960, 4, 4]               0
   ShuffleUnitV1-198            [-1, 960, 4, 4]               0
AdaptiveAvgPool2d-199            [-1, 960, 1, 1]               0
          Linear-200                   [-1, 10]           9,610
================================================================
Total params: 871,120
Trainable params: 871,120
Non-trainable params: 0
----------------------------------------------------------------
Input size (MB): 0.01
Forward/backward pass size (MB): 30.00
Params size (MB): 3.32
Estimated Total Size (MB): 33.34
----------------------------------------------------------------
