----------------------------------------------------------------
        Layer (type)               Output Shape         Param #
================================================================
            Conv2d-1           [-1, 10, 32, 32]             270
       BatchNorm2d-2           [-1, 10, 32, 32]              20
              ReLU-3           [-1, 10, 32, 32]               0
            Conv2d-4           [-1, 10, 32, 32]              90
       BatchNorm2d-5           [-1, 10, 32, 32]              20
              ReLU-6           [-1, 10, 32, 32]               0
            Conv2d-7           [-1, 20, 32, 32]             200
       BatchNorm2d-8           [-1, 20, 32, 32]              40
              ReLU-9           [-1, 20, 32, 32]               0
           Conv2d-10           [-1, 20, 16, 16]             180
      BatchNorm2d-11           [-1, 20, 16, 16]              40
             ReLU-12           [-1, 20, 16, 16]               0
           Conv2d-13           [-1, 40, 16, 16]             800
      BatchNorm2d-14           [-1, 40, 16, 16]              80
             ReLU-15           [-1, 40, 16, 16]               0
DepthwiseSeparableConv2d-16           [-1, 40, 16, 16]               0
           Conv2d-17           [-1, 40, 16, 16]             360
      BatchNorm2d-18           [-1, 40, 16, 16]              80
             ReLU-19           [-1, 40, 16, 16]               0
           Conv2d-20           [-1, 40, 16, 16]           1,600
      BatchNorm2d-21           [-1, 40, 16, 16]              80
             ReLU-22           [-1, 40, 16, 16]               0
DepthwiseSeparableConv2d-23           [-1, 40, 16, 16]               0
           Conv2d-24             [-1, 40, 8, 8]             360
      BatchNorm2d-25             [-1, 40, 8, 8]              80
             ReLU-26             [-1, 40, 8, 8]               0
           Conv2d-27             [-1, 80, 8, 8]           3,200
      BatchNorm2d-28             [-1, 80, 8, 8]             160
             ReLU-29             [-1, 80, 8, 8]               0
DepthwiseSeparableConv2d-30             [-1, 80, 8, 8]               0
           Conv2d-31             [-1, 80, 8, 8]             720
      BatchNorm2d-32             [-1, 80, 8, 8]             160
             ReLU-33             [-1, 80, 8, 8]               0
           Conv2d-34             [-1, 80, 8, 8]           6,400
      BatchNorm2d-35             [-1, 80, 8, 8]             160
             ReLU-36             [-1, 80, 8, 8]               0
DepthwiseSeparableConv2d-37             [-1, 80, 8, 8]               0
           Conv2d-38             [-1, 80, 4, 4]             720
      BatchNorm2d-39             [-1, 80, 4, 4]             160
             ReLU-40             [-1, 80, 4, 4]               0
           Conv2d-41            [-1, 160, 4, 4]          12,800
      BatchNorm2d-42            [-1, 160, 4, 4]             320
             ReLU-43            [-1, 160, 4, 4]               0
DepthwiseSeparableConv2d-44            [-1, 160, 4, 4]               0
           Conv2d-45            [-1, 160, 4, 4]           1,440
      BatchNorm2d-46            [-1, 160, 4, 4]             320
             ReLU-47            [-1, 160, 4, 4]               0
           Conv2d-48            [-1, 160, 4, 4]          25,600
      BatchNorm2d-49            [-1, 160, 4, 4]             320
             ReLU-50            [-1, 160, 4, 4]               0
DepthwiseSeparableConv2d-51            [-1, 160, 4, 4]               0
           Conv2d-52            [-1, 160, 4, 4]           1,440
      BatchNorm2d-53            [-1, 160, 4, 4]             320
             ReLU-54            [-1, 160, 4, 4]               0
           Conv2d-55            [-1, 160, 4, 4]          25,600
      BatchNorm2d-56            [-1, 160, 4, 4]             320
             ReLU-57            [-1, 160, 4, 4]               0
DepthwiseSeparableConv2d-58            [-1, 160, 4, 4]               0
           Conv2d-59            [-1, 160, 4, 4]           1,440
      BatchNorm2d-60            [-1, 160, 4, 4]             320
             ReLU-61            [-1, 160, 4, 4]               0
           Conv2d-62            [-1, 160, 4, 4]          25,600
      BatchNorm2d-63            [-1, 160, 4, 4]             320
             ReLU-64            [-1, 160, 4, 4]               0
DepthwiseSeparableConv2d-65            [-1, 160, 4, 4]               0
           Conv2d-66            [-1, 160, 4, 4]           1,440
      BatchNorm2d-67            [-1, 160, 4, 4]             320
             ReLU-68            [-1, 160, 4, 4]               0
           Conv2d-69            [-1, 160, 4, 4]          25,600
      BatchNorm2d-70            [-1, 160, 4, 4]             320
             ReLU-71            [-1, 160, 4, 4]               0
DepthwiseSeparableConv2d-72            [-1, 160, 4, 4]               0
           Conv2d-73            [-1, 160, 4, 4]           1,440
      BatchNorm2d-74            [-1, 160, 4, 4]             320
             ReLU-75            [-1, 160, 4, 4]               0
           Conv2d-76            [-1, 160, 4, 4]          25,600
      BatchNorm2d-77            [-1, 160, 4, 4]             320
             ReLU-78            [-1, 160, 4, 4]               0
DepthwiseSeparableConv2d-79            [-1, 160, 4, 4]               0
           Conv2d-80            [-1, 160, 2, 2]           1,440
      BatchNorm2d-81            [-1, 160, 2, 2]             320
             ReLU-82            [-1, 160, 2, 2]               0
           Conv2d-83            [-1, 320, 2, 2]          51,200
      BatchNorm2d-84            [-1, 320, 2, 2]             640
             ReLU-85            [-1, 320, 2, 2]               0
DepthwiseSeparableConv2d-86            [-1, 320, 2, 2]               0
           Conv2d-87            [-1, 320, 2, 2]           2,880
      BatchNorm2d-88            [-1, 320, 2, 2]             640
             ReLU-89            [-1, 320, 2, 2]               0
           Conv2d-90            [-1, 320, 2, 2]         102,400
      BatchNorm2d-91            [-1, 320, 2, 2]             640
             ReLU-92            [-1, 320, 2, 2]               0
DepthwiseSeparableConv2d-93            [-1, 320, 2, 2]               0
AdaptiveAvgPool2d-94            [-1, 320, 1, 1]               0
           Linear-95                   [-1, 10]           3,210
================================================================
Total params: 330,870
Trainable params: 330,870
Non-trainable params: 0
----------------------------------------------------------------
Input size (MB): 0.01
Forward/backward pass size (MB): 3.32
Params size (MB): 1.26
Estimated Total Size (MB): 4.59
----------------------------------------------------------------
