----------------------------------------------------------------
        Layer (type)               Output Shape         Param #
================================================================
            Conv2d-1            [-1, 8, 32, 32]             216
       BatchNorm2d-2            [-1, 8, 32, 32]              16
              ReLU-3            [-1, 8, 32, 32]               0
            Conv2d-4            [-1, 8, 32, 32]              72
       BatchNorm2d-5            [-1, 8, 32, 32]              16
              ReLU-6            [-1, 8, 32, 32]               0
            Conv2d-7           [-1, 16, 32, 32]             128
       BatchNorm2d-8           [-1, 16, 32, 32]              32
              ReLU-9           [-1, 16, 32, 32]               0
           Conv2d-10           [-1, 16, 16, 16]             144
      BatchNorm2d-11           [-1, 16, 16, 16]              32
             ReLU-12           [-1, 16, 16, 16]               0
           Conv2d-13           [-1, 32, 16, 16]             512
      BatchNorm2d-14           [-1, 32, 16, 16]              64
             ReLU-15           [-1, 32, 16, 16]               0
DepthwiseSeparableConv2d-16           [-1, 32, 16, 16]               0
           Conv2d-17           [-1, 32, 16, 16]             288
      BatchNorm2d-18           [-1, 32, 16, 16]              64
             ReLU-19           [-1, 32, 16, 16]               0
           Conv2d-20           [-1, 32, 16, 16]           1,024
      BatchNorm2d-21           [-1, 32, 16, 16]              64
             ReLU-22           [-1, 32, 16, 16]               0
DepthwiseSeparableConv2d-23           [-1, 32, 16, 16]               0
           Conv2d-24             [-1, 32, 8, 8]             288
      BatchNorm2d-25             [-1, 32, 8, 8]              64
             ReLU-26             [-1, 32, 8, 8]               0
           Conv2d-27             [-1, 64, 8, 8]           2,048
      BatchNorm2d-28             [-1, 64, 8, 8]             128
             ReLU-29             [-1, 64, 8, 8]               0
DepthwiseSeparableConv2d-30             [-1, 64, 8, 8]               0
           Conv2d-31             [-1, 64, 8, 8]             576
      BatchNorm2d-32             [-1, 64, 8, 8]             128
             ReLU-33             [-1, 64, 8, 8]               0
           Conv2d-34             [-1, 64, 8, 8]           4,096
      BatchNorm2d-35             [-1, 64, 8, 8]             128
             ReLU-36             [-1, 64, 8, 8]               0
DepthwiseSeparableConv2d-37             [-1, 64, 8, 8]               0
           Conv2d-38             [-1, 64, 4, 4]             576
      BatchNorm2d-39             [-1, 64, 4, 4]             128
             ReLU-40             [-1, 64, 4, 4]               0
           Conv2d-41            [-1, 128, 4, 4]           8,192
      BatchNorm2d-42            [-1, 128, 4, 4]             256
             ReLU-43            [-1, 128, 4, 4]               0
DepthwiseSeparableConv2d-44            [-1, 128, 4, 4]               0
           Conv2d-45            [-1, 128, 4, 4]           1,152
      BatchNorm2d-46            [-1, 128, 4, 4]             256
             ReLU-47            [-1, 128, 4, 4]               0
           Conv2d-48            [-1, 128, 4, 4]          16,384
      BatchNorm2d-49            [-1, 128, 4, 4]             256
             ReLU-50            [-1, 128, 4, 4]               0
DepthwiseSeparableConv2d-51            [-1, 128, 4, 4]               0
           Conv2d-52            [-1, 128, 4, 4]           1,152
      BatchNorm2d-53            [-1, 128, 4, 4]             256
             ReLU-54            [-1, 128, 4, 4]               0
           Conv2d-55            [-1, 128, 4, 4]          16,384
      BatchNorm2d-56            [-1, 128, 4, 4]             256
             ReLU-57            [-1, 128, 4, 4]               0
DepthwiseSeparableConv2d-58            [-1, 128, 4, 4]               0
           Conv2d-59            [-1, 128, 4, 4]           1,152
      BatchNorm2d-60            [-1, 128, 4, 4]             256
             ReLU-61            [-1, 128, 4, 4]               0
           Conv2d-62            [-1, 128, 4, 4]          16,384
      BatchNorm2d-63            [-1, 128, 4, 4]             256
             ReLU-64            [-1, 128, 4, 4]               0
DepthwiseSeparableConv2d-65            [-1, 128, 4, 4]               0
           Conv2d-66            [-1, 128, 4, 4]           1,152
      BatchNorm2d-67            [-1, 128, 4, 4]             256
             ReLU-68            [-1, 128, 4, 4]               0
           Conv2d-69            [-1, 128, 4, 4]          16,384
      BatchNorm2d-70            [-1, 128, 4, 4]             256
             ReLU-71            [-1, 128, 4, 4]               0
DepthwiseSeparableConv2d-72            [-1, 128, 4, 4]               0
           Conv2d-73            [-1, 128, 4, 4]           1,152
      BatchNorm2d-74            [-1, 128, 4, 4]             256
             ReLU-75            [-1, 128, 4, 4]               0
           Conv2d-76            [-1, 128, 4, 4]          16,384
      BatchNorm2d-77            [-1, 128, 4, 4]             256
             ReLU-78            [-1, 128, 4, 4]               0
DepthwiseSeparableConv2d-79            [-1, 128, 4, 4]               0
           Conv2d-80            [-1, 128, 2, 2]           1,152
      BatchNorm2d-81            [-1, 128, 2, 2]             256
             ReLU-82            [-1, 128, 2, 2]               0
           Conv2d-83            [-1, 256, 2, 2]          32,768
      BatchNorm2d-84            [-1, 256, 2, 2]             512
             ReLU-85            [-1, 256, 2, 2]               0
DepthwiseSeparableConv2d-86            [-1, 256, 2, 2]               0
           Conv2d-87            [-1, 256, 2, 2]           2,304
      BatchNorm2d-88            [-1, 256, 2, 2]             512
             ReLU-89            [-1, 256, 2, 2]               0
           Conv2d-90            [-1, 256, 2, 2]          65,536
      BatchNorm2d-91            [-1, 256, 2, 2]             512
             ReLU-92            [-1, 256, 2, 2]               0
DepthwiseSeparableConv2d-93            [-1, 256, 2, 2]               0
AdaptiveAvgPool2d-94            [-1, 256, 1, 1]               0
           Linear-95                   [-1, 10]           2,570
================================================================
Total params: 215,642
Trainable params: 215,642
Non-trainable params: 0
----------------------------------------------------------------
Input size (MB): 0.01
Forward/backward pass size (MB): 2.65
Params size (MB): 0.82
Estimated Total Size (MB): 3.49
----------------------------------------------------------------
