----------------------------------------------------------------
        Layer (type)               Output Shape         Param #
================================================================
            Conv2d-1           [-1, 24, 32, 32]             648
       BatchNorm2d-2           [-1, 24, 32, 32]              48
              ReLU-3           [-1, 24, 32, 32]               0
            Conv2d-4           [-1, 24, 16, 16]             216
       BatchNorm2d-5           [-1, 24, 16, 16]              48
            Conv2d-6           [-1, 24, 16, 16]             576
       BatchNorm2d-7           [-1, 24, 16, 16]              48
              ReLU-8           [-1, 24, 16, 16]               0
            Conv2d-9           [-1, 24, 32, 32]             576
      BatchNorm2d-10           [-1, 24, 32, 32]              48
             ReLU-11           [-1, 24, 32, 32]               0
          Dropout-12           [-1, 24, 32, 32]               0
           Conv2d-13           [-1, 24, 16, 16]             216
      BatchNorm2d-14           [-1, 24, 16, 16]              48
          Dropout-15           [-1, 24, 16, 16]               0
           Conv2d-16           [-1, 24, 16, 16]             576
      BatchNorm2d-17           [-1, 24, 16, 16]              48
             ReLU-18           [-1, 24, 16, 16]               0
    ShuffleUnitV2-19           [-1, 48, 16, 16]               0
           Conv2d-20           [-1, 24, 16, 16]             576
      BatchNorm2d-21           [-1, 24, 16, 16]              48
             ReLU-22           [-1, 24, 16, 16]               0
          Dropout-23           [-1, 24, 16, 16]               0
           Conv2d-24           [-1, 24, 16, 16]             216
      BatchNorm2d-25           [-1, 24, 16, 16]              48
          Dropout-26           [-1, 24, 16, 16]               0
           Conv2d-27           [-1, 24, 16, 16]             576
      BatchNorm2d-28           [-1, 24, 16, 16]              48
             ReLU-29           [-1, 24, 16, 16]               0
    ShuffleUnitV2-30           [-1, 48, 16, 16]               0
           Conv2d-31           [-1, 24, 16, 16]             576
      BatchNorm2d-32           [-1, 24, 16, 16]              48
             ReLU-33           [-1, 24, 16, 16]               0
          Dropout-34           [-1, 24, 16, 16]               0
           Conv2d-35           [-1, 24, 16, 16]             216
      BatchNorm2d-36           [-1, 24, 16, 16]              48
          Dropout-37           [-1, 24, 16, 16]               0
           Conv2d-38           [-1, 24, 16, 16]             576
      BatchNorm2d-39           [-1, 24, 16, 16]              48
             ReLU-40           [-1, 24, 16, 16]               0
    ShuffleUnitV2-41           [-1, 48, 16, 16]               0
           Conv2d-42             [-1, 48, 8, 8]             432
      BatchNorm2d-43             [-1, 48, 8, 8]              96
           Conv2d-44             [-1, 48, 8, 8]           2,304
      BatchNorm2d-45             [-1, 48, 8, 8]              96
             ReLU-46             [-1, 48, 8, 8]               0
           Conv2d-47           [-1, 48, 16, 16]           2,304
      BatchNorm2d-48           [-1, 48, 16, 16]              96
             ReLU-49           [-1, 48, 16, 16]               0
          Dropout-50           [-1, 48, 16, 16]               0
           Conv2d-51             [-1, 48, 8, 8]             432
      BatchNorm2d-52             [-1, 48, 8, 8]              96
          Dropout-53             [-1, 48, 8, 8]               0
           Conv2d-54             [-1, 48, 8, 8]           2,304
      BatchNorm2d-55             [-1, 48, 8, 8]              96
             ReLU-56             [-1, 48, 8, 8]               0
    ShuffleUnitV2-57             [-1, 96, 8, 8]               0
           Conv2d-58             [-1, 48, 8, 8]           2,304
      BatchNorm2d-59             [-1, 48, 8, 8]              96
             ReLU-60             [-1, 48, 8, 8]               0
          Dropout-61             [-1, 48, 8, 8]               0
           Conv2d-62             [-1, 48, 8, 8]             432
      BatchNorm2d-63             [-1, 48, 8, 8]              96
          Dropout-64             [-1, 48, 8, 8]               0
           Conv2d-65             [-1, 48, 8, 8]           2,304
      BatchNorm2d-66             [-1, 48, 8, 8]              96
             ReLU-67             [-1, 48, 8, 8]               0
    ShuffleUnitV2-68             [-1, 96, 8, 8]               0
           Conv2d-69             [-1, 48, 8, 8]           2,304
      BatchNorm2d-70             [-1, 48, 8, 8]              96
             ReLU-71             [-1, 48, 8, 8]               0
          Dropout-72             [-1, 48, 8, 8]               0
           Conv2d-73             [-1, 48, 8, 8]             432
      BatchNorm2d-74             [-1, 48, 8, 8]              96
          Dropout-75             [-1, 48, 8, 8]               0
           Conv2d-76             [-1, 48, 8, 8]           2,304
      BatchNorm2d-77             [-1, 48, 8, 8]              96
             ReLU-78             [-1, 48, 8, 8]               0
    ShuffleUnitV2-79             [-1, 96, 8, 8]               0
           Conv2d-80             [-1, 48, 8, 8]           2,304
      BatchNorm2d-81             [-1, 48, 8, 8]              96
             ReLU-82             [-1, 48, 8, 8]               0
          Dropout-83             [-1, 48, 8, 8]               0
           Conv2d-84             [-1, 48, 8, 8]             432
      BatchNorm2d-85             [-1, 48, 8, 8]              96
          Dropout-86             [-1, 48, 8, 8]               0
           Conv2d-87             [-1, 48, 8, 8]           2,304
      BatchNorm2d-88             [-1, 48, 8, 8]              96
             ReLU-89             [-1, 48, 8, 8]               0
    ShuffleUnitV2-90             [-1, 96, 8, 8]               0
           Conv2d-91             [-1, 48, 8, 8]           2,304
      BatchNorm2d-92             [-1, 48, 8, 8]              96
             ReLU-93             [-1, 48, 8, 8]               0
          Dropout-94             [-1, 48, 8, 8]               0
           Conv2d-95             [-1, 48, 8, 8]             432
      BatchNorm2d-96             [-1, 48, 8, 8]              96
          Dropout-97             [-1, 48, 8, 8]               0
           Conv2d-98             [-1, 48, 8, 8]           2,304
      BatchNorm2d-99             [-1, 48, 8, 8]              96
            ReLU-100             [-1, 48, 8, 8]               0
   ShuffleUnitV2-101             [-1, 96, 8, 8]               0
          Conv2d-102             [-1, 48, 8, 8]           2,304
     BatchNorm2d-103             [-1, 48, 8, 8]              96
            ReLU-104             [-1, 48, 8, 8]               0
         Dropout-105             [-1, 48, 8, 8]               0
          Conv2d-106             [-1, 48, 8, 8]             432
     BatchNorm2d-107             [-1, 48, 8, 8]              96
         Dropout-108             [-1, 48, 8, 8]               0
          Conv2d-109             [-1, 48, 8, 8]           2,304
     BatchNorm2d-110             [-1, 48, 8, 8]              96
            ReLU-111             [-1, 48, 8, 8]               0
   ShuffleUnitV2-112             [-1, 96, 8, 8]               0
          Conv2d-113             [-1, 48, 8, 8]           2,304
     BatchNorm2d-114             [-1, 48, 8, 8]              96
            ReLU-115             [-1, 48, 8, 8]               0
         Dropout-116             [-1, 48, 8, 8]               0
          Conv2d-117             [-1, 48, 8, 8]             432
     BatchNorm2d-118             [-1, 48, 8, 8]              96
         Dropout-119             [-1, 48, 8, 8]               0
          Conv2d-120             [-1, 48, 8, 8]           2,304
     BatchNorm2d-121             [-1, 48, 8, 8]              96
            ReLU-122             [-1, 48, 8, 8]               0
   ShuffleUnitV2-123             [-1, 96, 8, 8]               0
          Conv2d-124             [-1, 48, 8, 8]           2,304
     BatchNorm2d-125             [-1, 48, 8, 8]              96
            ReLU-126             [-1, 48, 8, 8]               0
         Dropout-127             [-1, 48, 8, 8]               0
          Conv2d-128             [-1, 48, 8, 8]             432
     BatchNorm2d-129             [-1, 48, 8, 8]              96
         Dropout-130             [-1, 48, 8, 8]               0
          Conv2d-131             [-1, 48, 8, 8]           2,304
     BatchNorm2d-132             [-1, 48, 8, 8]              96
            ReLU-133             [-1, 48, 8, 8]               0
   ShuffleUnitV2-134             [-1, 96, 8, 8]               0
          Conv2d-135             [-1, 96, 4, 4]             864
     BatchNorm2d-136             [-1, 96, 4, 4]             192
          Conv2d-137             [-1, 96, 4, 4]           9,216
     BatchNorm2d-138             [-1, 96, 4, 4]             192
            ReLU-139             [-1, 96, 4, 4]               0
          Conv2d-140             [-1, 96, 8, 8]           9,216
     BatchNorm2d-141             [-1, 96, 8, 8]             192
            ReLU-142             [-1, 96, 8, 8]               0
         Dropout-143             [-1, 96, 8, 8]               0
          Conv2d-144             [-1, 96, 4, 4]             864
     BatchNorm2d-145             [-1, 96, 4, 4]             192
         Dropout-146             [-1, 96, 4, 4]               0
          Conv2d-147             [-1, 96, 4, 4]           9,216
     BatchNorm2d-148             [-1, 96, 4, 4]             192
            ReLU-149             [-1, 96, 4, 4]               0
   ShuffleUnitV2-150            [-1, 192, 4, 4]               0
          Conv2d-151             [-1, 96, 4, 4]           9,216
     BatchNorm2d-152             [-1, 96, 4, 4]             192
            ReLU-153             [-1, 96, 4, 4]               0
         Dropout-154             [-1, 96, 4, 4]               0
          Conv2d-155             [-1, 96, 4, 4]             864
     BatchNorm2d-156             [-1, 96, 4, 4]             192
         Dropout-157             [-1, 96, 4, 4]               0
          Conv2d-158             [-1, 96, 4, 4]           9,216
     BatchNorm2d-159             [-1, 96, 4, 4]             192
            ReLU-160             [-1, 96, 4, 4]               0
   ShuffleUnitV2-161            [-1, 192, 4, 4]               0
          Conv2d-162             [-1, 96, 4, 4]           9,216
     BatchNorm2d-163             [-1, 96, 4, 4]             192
            ReLU-164             [-1, 96, 4, 4]               0
         Dropout-165             [-1, 96, 4, 4]               0
          Conv2d-166             [-1, 96, 4, 4]             864
     BatchNorm2d-167             [-1, 96, 4, 4]             192
         Dropout-168             [-1, 96, 4, 4]               0
          Conv2d-169             [-1, 96, 4, 4]           9,216
     BatchNorm2d-170             [-1, 96, 4, 4]             192
            ReLU-171             [-1, 96, 4, 4]               0
   ShuffleUnitV2-172            [-1, 192, 4, 4]               0
          Conv2d-173             [-1, 96, 4, 4]           9,216
     BatchNorm2d-174             [-1, 96, 4, 4]             192
            ReLU-175             [-1, 96, 4, 4]               0
         Dropout-176             [-1, 96, 4, 4]               0
          Conv2d-177             [-1, 96, 4, 4]             864
     BatchNorm2d-178             [-1, 96, 4, 4]             192
         Dropout-179             [-1, 96, 4, 4]               0
          Conv2d-180             [-1, 96, 4, 4]           9,216
     BatchNorm2d-181             [-1, 96, 4, 4]             192
            ReLU-182             [-1, 96, 4, 4]               0
   ShuffleUnitV2-183            [-1, 192, 4, 4]               0
          Conv2d-184           [-1, 1024, 4, 4]         196,608
     BatchNorm2d-185           [-1, 1024, 4, 4]           2,048
            ReLU-186           [-1, 1024, 4, 4]               0
AdaptiveAvgPool2d-187           [-1, 1024, 1, 1]               0
          Linear-188                   [-1, 10]          10,250
================================================================
Total params: 350,530
Trainable params: 350,530
Non-trainable params: 0
----------------------------------------------------------------
Input size (MB): 0.01
Forward/backward pass size (MB): 6.84
Params size (MB): 1.34
Estimated Total Size (MB): 8.19
----------------------------------------------------------------
