----------------------------------------------------------------
        Layer (type)               Output Shape         Param #
================================================================
            Conv2d-1           [-1, 24, 32, 32]             648
       BatchNorm2d-2           [-1, 24, 32, 32]              48
              ReLU-3           [-1, 24, 32, 32]               0
            Conv2d-4           [-1, 62, 32, 32]           1,488
       BatchNorm2d-5           [-1, 62, 32, 32]             124
           Dropout-6           [-1, 62, 32, 32]               0
              ReLU-7           [-1, 62, 32, 32]               0
            Conv2d-8           [-1, 62, 16, 16]             558
       BatchNorm2d-9           [-1, 62, 16, 16]             124
          Dropout-10           [-1, 62, 16, 16]               0
           Conv2d-11          [-1, 248, 16, 16]          15,376
      BatchNorm2d-12          [-1, 248, 16, 16]             496
          Dropout-13          [-1, 248, 16, 16]               0
        AvgPool2d-14           [-1, 24, 16, 16]               0
             ReLU-15          [-1, 272, 16, 16]               0
    ShuffleUnitV1-16          [-1, 272, 16, 16]               0
           Conv2d-17           [-1, 68, 16, 16]           4,624
      BatchNorm2d-18           [-1, 68, 16, 16]             136
          Dropout-19           [-1, 68, 16, 16]               0
             ReLU-20           [-1, 68, 16, 16]               0
           Conv2d-21           [-1, 68, 16, 16]             612
      BatchNorm2d-22           [-1, 68, 16, 16]             136
          Dropout-23           [-1, 68, 16, 16]               0
           Conv2d-24          [-1, 272, 16, 16]           4,624
      BatchNorm2d-25          [-1, 272, 16, 16]             544
          Dropout-26          [-1, 272, 16, 16]               0
             ReLU-27          [-1, 272, 16, 16]               0
    ShuffleUnitV1-28          [-1, 272, 16, 16]               0
           Conv2d-29           [-1, 68, 16, 16]           4,624
      BatchNorm2d-30           [-1, 68, 16, 16]             136
          Dropout-31           [-1, 68, 16, 16]               0
             ReLU-32           [-1, 68, 16, 16]               0
           Conv2d-33           [-1, 68, 16, 16]             612
      BatchNorm2d-34           [-1, 68, 16, 16]             136
          Dropout-35           [-1, 68, 16, 16]               0
           Conv2d-36          [-1, 272, 16, 16]           4,624
      BatchNorm2d-37          [-1, 272, 16, 16]             544
          Dropout-38          [-1, 272, 16, 16]               0
             ReLU-39          [-1, 272, 16, 16]               0
    ShuffleUnitV1-40          [-1, 272, 16, 16]               0
           Conv2d-41           [-1, 68, 16, 16]           4,624
      BatchNorm2d-42           [-1, 68, 16, 16]             136
          Dropout-43           [-1, 68, 16, 16]               0
             ReLU-44           [-1, 68, 16, 16]               0
           Conv2d-45           [-1, 68, 16, 16]             612
      BatchNorm2d-46           [-1, 68, 16, 16]             136
          Dropout-47           [-1, 68, 16, 16]               0
           Conv2d-48          [-1, 272, 16, 16]           4,624
      BatchNorm2d-49          [-1, 272, 16, 16]             544
          Dropout-50          [-1, 272, 16, 16]               0
             ReLU-51          [-1, 272, 16, 16]               0
    ShuffleUnitV1-52          [-1, 272, 16, 16]               0
           Conv2d-53           [-1, 68, 16, 16]           4,624
      BatchNorm2d-54           [-1, 68, 16, 16]             136
          Dropout-55           [-1, 68, 16, 16]               0
             ReLU-56           [-1, 68, 16, 16]               0
           Conv2d-57             [-1, 68, 8, 8]             612
      BatchNorm2d-58             [-1, 68, 8, 8]             136
          Dropout-59             [-1, 68, 8, 8]               0
           Conv2d-60            [-1, 272, 8, 8]           4,624
      BatchNorm2d-61            [-1, 272, 8, 8]             544
          Dropout-62            [-1, 272, 8, 8]               0
        AvgPool2d-63            [-1, 272, 8, 8]               0
             ReLU-64            [-1, 544, 8, 8]               0
    ShuffleUnitV1-65            [-1, 544, 8, 8]               0
           Conv2d-66            [-1, 136, 8, 8]          18,496
      BatchNorm2d-67            [-1, 136, 8, 8]             272
          Dropout-68            [-1, 136, 8, 8]               0
             ReLU-69            [-1, 136, 8, 8]               0
           Conv2d-70            [-1, 136, 8, 8]           1,224
      BatchNorm2d-71            [-1, 136, 8, 8]             272
          Dropout-72            [-1, 136, 8, 8]               0
           Conv2d-73            [-1, 544, 8, 8]          18,496
      BatchNorm2d-74            [-1, 544, 8, 8]           1,088
          Dropout-75            [-1, 544, 8, 8]               0
             ReLU-76            [-1, 544, 8, 8]               0
    ShuffleUnitV1-77            [-1, 544, 8, 8]               0
           Conv2d-78            [-1, 136, 8, 8]          18,496
      BatchNorm2d-79            [-1, 136, 8, 8]             272
          Dropout-80            [-1, 136, 8, 8]               0
             ReLU-81            [-1, 136, 8, 8]               0
           Conv2d-82            [-1, 136, 8, 8]           1,224
      BatchNorm2d-83            [-1, 136, 8, 8]             272
          Dropout-84            [-1, 136, 8, 8]               0
           Conv2d-85            [-1, 544, 8, 8]          18,496
      BatchNorm2d-86            [-1, 544, 8, 8]           1,088
          Dropout-87            [-1, 544, 8, 8]               0
             ReLU-88            [-1, 544, 8, 8]               0
    ShuffleUnitV1-89            [-1, 544, 8, 8]               0
           Conv2d-90            [-1, 136, 8, 8]          18,496
      BatchNorm2d-91            [-1, 136, 8, 8]             272
          Dropout-92            [-1, 136, 8, 8]               0
             ReLU-93            [-1, 136, 8, 8]               0
           Conv2d-94            [-1, 136, 8, 8]           1,224
      BatchNorm2d-95            [-1, 136, 8, 8]             272
          Dropout-96            [-1, 136, 8, 8]               0
           Conv2d-97            [-1, 544, 8, 8]          18,496
      BatchNorm2d-98            [-1, 544, 8, 8]           1,088
          Dropout-99            [-1, 544, 8, 8]               0
            ReLU-100            [-1, 544, 8, 8]               0
   ShuffleUnitV1-101            [-1, 544, 8, 8]               0
          Conv2d-102            [-1, 136, 8, 8]          18,496
     BatchNorm2d-103            [-1, 136, 8, 8]             272
         Dropout-104            [-1, 136, 8, 8]               0
            ReLU-105            [-1, 136, 8, 8]               0
          Conv2d-106            [-1, 136, 8, 8]           1,224
     BatchNorm2d-107            [-1, 136, 8, 8]             272
         Dropout-108            [-1, 136, 8, 8]               0
          Conv2d-109            [-1, 544, 8, 8]          18,496
     BatchNorm2d-110            [-1, 544, 8, 8]           1,088
         Dropout-111            [-1, 544, 8, 8]               0
            ReLU-112            [-1, 544, 8, 8]               0
   ShuffleUnitV1-113            [-1, 544, 8, 8]               0
          Conv2d-114            [-1, 136, 8, 8]          18,496
     BatchNorm2d-115            [-1, 136, 8, 8]             272
         Dropout-116            [-1, 136, 8, 8]               0
            ReLU-117            [-1, 136, 8, 8]               0
          Conv2d-118            [-1, 136, 8, 8]           1,224
     BatchNorm2d-119            [-1, 136, 8, 8]             272
         Dropout-120            [-1, 136, 8, 8]               0
          Conv2d-121            [-1, 544, 8, 8]          18,496
     BatchNorm2d-122            [-1, 544, 8, 8]           1,088
         Dropout-123            [-1, 544, 8, 8]               0
            ReLU-124            [-1, 544, 8, 8]               0
   ShuffleUnitV1-125            [-1, 544, 8, 8]               0
          Conv2d-126            [-1, 136, 8, 8]          18,496
     BatchNorm2d-127            [-1, 136, 8, 8]             272
         Dropout-128            [-1, 136, 8, 8]               0
            ReLU-129            [-1, 136, 8, 8]               0
          Conv2d-130            [-1, 136, 8, 8]           1,224
     BatchNorm2d-131            [-1, 136, 8, 8]             272
         Dropout-132            [-1, 136, 8, 8]               0
          Conv2d-133            [-1, 544, 8, 8]          18,496
     BatchNorm2d-134            [-1, 544, 8, 8]           1,088
         Dropout-135            [-1, 544, 8, 8]               0
            ReLU-136            [-1, 544, 8, 8]               0
   ShuffleUnitV1-137            [-1, 544, 8, 8]               0
          Conv2d-138            [-1, 136, 8, 8]          18,496
     BatchNorm2d-139            [-1, 136, 8, 8]             272
         Dropout-140            [-1, 136, 8, 8]               0
            ReLU-141            [-1, 136, 8, 8]               0
          Conv2d-142            [-1, 136, 8, 8]           1,224
     BatchNorm2d-143            [-1, 136, 8, 8]             272
         Dropout-144            [-1, 136, 8, 8]               0
          Conv2d-145            [-1, 544, 8, 8]          18,496
     BatchNorm2d-146            [-1, 544, 8, 8]           1,088
         Dropout-147            [-1, 544, 8, 8]               0
            ReLU-148            [-1, 544, 8, 8]               0
   ShuffleUnitV1-149            [-1, 544, 8, 8]               0
          Conv2d-150            [-1, 136, 8, 8]          18,496
     BatchNorm2d-151            [-1, 136, 8, 8]             272
         Dropout-152            [-1, 136, 8, 8]               0
            ReLU-153            [-1, 136, 8, 8]               0
          Conv2d-154            [-1, 136, 4, 4]           1,224
     BatchNorm2d-155            [-1, 136, 4, 4]             272
         Dropout-156            [-1, 136, 4, 4]               0
          Conv2d-157            [-1, 544, 4, 4]          18,496
     BatchNorm2d-158            [-1, 544, 4, 4]           1,088
         Dropout-159            [-1, 544, 4, 4]               0
       AvgPool2d-160            [-1, 544, 4, 4]               0
            ReLU-161           [-1, 1088, 4, 4]               0
   ShuffleUnitV1-162           [-1, 1088, 4, 4]               0
          Conv2d-163            [-1, 272, 4, 4]          73,984
     BatchNorm2d-164            [-1, 272, 4, 4]             544
         Dropout-165            [-1, 272, 4, 4]               0
            ReLU-166            [-1, 272, 4, 4]               0
          Conv2d-167            [-1, 272, 4, 4]           2,448
     BatchNorm2d-168            [-1, 272, 4, 4]             544
         Dropout-169            [-1, 272, 4, 4]               0
          Conv2d-170           [-1, 1088, 4, 4]          73,984
     BatchNorm2d-171           [-1, 1088, 4, 4]           2,176
         Dropout-172           [-1, 1088, 4, 4]               0
            ReLU-173           [-1, 1088, 4, 4]               0
   ShuffleUnitV1-174           [-1, 1088, 4, 4]               0
          Conv2d-175            [-1, 272, 4, 4]          73,984
     BatchNorm2d-176            [-1, 272, 4, 4]             544
         Dropout-177            [-1, 272, 4, 4]               0
            ReLU-178            [-1, 272, 4, 4]               0
          Conv2d-179            [-1, 272, 4, 4]           2,448
     BatchNorm2d-180            [-1, 272, 4, 4]             544
         Dropout-181            [-1, 272, 4, 4]               0
          Conv2d-182           [-1, 1088, 4, 4]          73,984
     BatchNorm2d-183           [-1, 1088, 4, 4]           2,176
         Dropout-184           [-1, 1088, 4, 4]               0
            ReLU-185           [-1, 1088, 4, 4]               0
   ShuffleUnitV1-186           [-1, 1088, 4, 4]               0
          Conv2d-187            [-1, 272, 4, 4]          73,984
     BatchNorm2d-188            [-1, 272, 4, 4]             544
         Dropout-189            [-1, 272, 4, 4]               0
            ReLU-190            [-1, 272, 4, 4]               0
          Conv2d-191            [-1, 272, 4, 4]           2,448
     BatchNorm2d-192            [-1, 272, 4, 4]             544
         Dropout-193            [-1, 272, 4, 4]               0
          Conv2d-194           [-1, 1088, 4, 4]          73,984
     BatchNorm2d-195           [-1, 1088, 4, 4]           2,176
         Dropout-196           [-1, 1088, 4, 4]               0
            ReLU-197           [-1, 1088, 4, 4]               0
   ShuffleUnitV1-198           [-1, 1088, 4, 4]               0
AdaptiveAvgPool2d-199           [-1, 1088, 1, 1]               0
          Linear-200                   [-1, 10]          10,890
================================================================
Total params: 852,280
Trainable params: 852,280
Non-trainable params: 0
----------------------------------------------------------------
Input size (MB): 0.01
Forward/backward pass size (MB): 33.97
Params size (MB): 3.25
Estimated Total Size (MB): 37.24
----------------------------------------------------------------
